…
        {
          "output_type": "stream",
          "name": "stdout",
          "text": [
            "Train Mean: 1.0842\n",
            "Train MAE:  0.2022 , Train Loss:  0.1511\n",
            "Val Mean: 1.0713\n",
            "Val MAE:  0.1988 , Val Loss:  0.1467\n",
            "Model: \"sequential_129\"\n",
            "_________________________________________________________________\n",
            "Layer (type)                 Output Shape              Param #   \n",
            "=================================================================\n",
            "Layer1 (Dense)               (None, 100)               900       \n",
            "_________________________________________________________________\n",
            "Layer2 (Dense)               (None, 50)                5050      \n",
            "_________________________________________________________________\n",
            "Layer3 (Dense)               (None, 30)                1530      \n",
            "_________________________________________________________________\n",
            "Layer4 (Dense)               (None, 20)                620       \n",
            "_________________________________________________________________\n",
            "Layer5 (Dense)               (None, 1)                 21        \n",
            "=================================================================\n",
            "Total params: 8,121\n",
            "Trainable params: 8,121\n",
            "Non-trainable params: 0\n",
            "_________________________________________________________________\n",
            "None\n"
          ]
        },
        {
          "output_type": "display_data",
          "data": {
…
        {
          "output_type": "stream",
          "name": "stdout",
          "text": [
            "Train Mean: 1.0842\n",
            "Train MAE:  0.1945 , Train Loss:  0.1507\n",
            "Val Mean: 1.0713\n",
            "Val MAE:  0.1914 , Val Loss:  0.147\n",
            "Model: \"sequential_130\"\n",
            "_________________________________________________________________\n",
            "Layer (type)                 Output Shape              Param #   \n",
            "=================================================================\n",
            "Layer1 (Dense)               (None, 100)               900       \n",
            "_________________________________________________________________\n",
            "Layer2 (Dropout)             (None, 100)               0         \n",
            "_________________________________________________________________\n",
            "Layer3 (Dense)               (None, 50)                5050      \n",
            "_________________________________________________________________\n",
            "Layer4 (Dropout)             (None, 50)                0         \n",
            "_________________________________________________________________\n",
            "Layer5 (Dense)               (None, 30)                1530      \n",
            "_________________________________________________________________\n",
            "Layer6 (Dropout)             (None, 30)                0         \n",
            "_________________________________________________________________\n",
            "Layer7 (Dense)               (None, 20)                620       \n",
            "_________________________________________________________________\n",
            "Layer8 (Dense)               (None, 1)                 21        \n",
            "=================================================================\n",
            "Total params: 8,121\n",
            "Trainable params: 8,121\n",
            "Non-trainable params: 0\n",
            "_________________________________________________________________\n",
            "None\n"
          ]
        },
        {
          "output_type": "display_data",
          "data": {
…
        {
          "output_type": "stream",
          "name": "stdout",
          "text": [
            "Train Mean: 1.0842\n",
            "Train MAE:  0.2105 , Train Loss:  0.1683\n",
            "Val Mean: 1.0713\n",
            "Val MAE:  0.2072 , Val Loss:  0.1659\n",
            "Model: \"sequential_131\"\n",
            "_________________________________________________________________\n",
            "Layer (type)                 Output Shape              Param #   \n",
            "=================================================================\n",
            "Layer1 (Dense)               (None, 100)               900       \n",
            "_________________________________________________________________\n",
            "Layer2 (Dropout)             (None, 100)               0         \n",
            "_________________________________________________________________\n",
            "Layer3 (Dense)               (None, 50)                5050      \n",
            "_________________________________________________________________\n",
            "Layer4 (Dropout)             (None, 50)                0         \n",
            "_________________________________________________________________\n",
            "Layer5 (Dense)               (None, 30)                1530      \n",
            "_________________________________________________________________\n",
            "Layer7 (Dense)               (None, 20)                620       \n",
            "_________________________________________________________________\n",
            "Layer8 (Dropout)             (None, 20)                0         \n",
            "_________________________________________________________________\n",
            "Layer9 (Dense)               (None, 20)                420       \n",
            "_________________________________________________________________\n",
            "Layer11 (Dense)              (None, 20)                420       \n",
            "_________________________________________________________________\n",
            "Layer13 (Dense)              (None, 30)                630       \n",
            "_________________________________________________________________\n",
            "Layer14 (Dense)              (None, 30)                930       \n",
            "_________________________________________________________________\n",
            "Layer15 (Dense)              (None, 30)                930       \n",
            "_________________________________________________________________\n",
            "Layer16 (Dropout)            (None, 30)                0         \n",
            "_________________________________________________________________\n",
            "Layer17 (Dense)              (None, 1)                 31        \n",
            "=================================================================\n",
            "Total params: 11,461\n",
            "Trainable params: 11,461\n",
            "Non-trainable params: 0\n",
            "_________________________________________________________________\n",
            "None\n"
          ]
        },
        {
          "output_type": "display_data",
          "data": {
…
        {
          "output_type": "stream",
          "name": "stdout",
          "text": [
            "Train Mean: 1.0842\n",
            "Train MAE:  0.246 , Train Loss:  0.2205\n",
            "Val Mean: 1.0713\n",
            "Val MAE:  0.2421 , Val Loss:  0.2182\n",
            "Model: \"sequential_134\"\n",
            "_________________________________________________________________\n",
            "Layer (type)                 Output Shape              Param #   \n",
            "=================================================================\n",
            "Layer1 (Dense)               (None, 100)               900       \n",
            "_________________________________________________________________\n",
            "Layer2 (Dropout)             (None, 100)               0         \n",
            "_________________________________________________________________\n",
            "Layer3 (Dense)               (None, 50)                5050      \n",
            "_________________________________________________________________\n",
            "Layer4 (Dropout)             (None, 50)                0         \n",
            "_________________________________________________________________\n",
            "Layer5 (Dense)               (None, 30)                1530      \n",
            "_________________________________________________________________\n",
            "Layer6 (Dropout)             (None, 30)                0         \n",
            "_________________________________________________________________\n",
            "Layer7 (Dense)               (None, 20)                620       \n",
            "_________________________________________________________________\n",
            "Layer8 (Dropout)             (None, 20)                0         \n",
            "_________________________________________________________________\n",
            "Layer9 (Dense)               (None, 20)                420       \n",
            "_________________________________________________________________\n",
            "Layer10 (Dropout)            (None, 20)                0         \n",
            "_________________________________________________________________\n",
            "Layer11 (Dense)              (None, 20)                420       \n",
            "_________________________________________________________________\n",
            "Layer12 (Dropout)            (None, 20)                0         \n",
            "_________________________________________________________________\n",
            "Layer13 (Dense)              (None, 30)                630       \n",
            "_________________________________________________________________\n",
            "Layer14 (Dense)              (None, 30)                930       \n",
            "_________________________________________________________________\n",
            "Layer15 (Dense)              (None, 30)                930       \n",
            "_________________________________________________________________\n",
            "Layer16 (Dropout)            (None, 30)                0         \n",
            "_________________________________________________________________\n",
            "Layer17 (Dense)              (None, 1)                 31        \n",
            "=================================================================\n",
            "Total params: 11,461\n",
            "Trainable params: 11,461\n",
            "Non-trainable params: 0\n",
            "_________________________________________________________________\n",
            "None\n"
          ]
        },
        {
          "output_type": "display_data",
          "data": {
…
