…
      "outputs": [
        {
          "output_type": "stream",
          "name": "stdout",
          "text": [
            "Model: \"model_5\"\n",
            "_________________________________________________________________\n",
            "Layer (type)                 Output Shape              Param #   \n",
            "=================================================================\n",
            "input_13 (InputLayer)        [(None, 32, 32, 3)]       0         \n",
            "_________________________________________________________________\n",
            "Layer1 (Conv2D)              (None, 32, 32, 16)        448       \n",
            "_________________________________________________________________\n",
            "Layer2 (BatchNormalization)  (None, 32, 32, 16)        64        \n",
            "_________________________________________________________________\n",
            "Layer3 (Activation)          (None, 32, 32, 16)        0         \n",
            "_________________________________________________________________\n",
            "Layer5 (MaxPooling2D)        (None, 16, 16, 16)        0         \n",
            "_________________________________________________________________\n",
            "Layer7 (Conv2D)              (None, 16, 16, 8)         1160      \n",
            "_________________________________________________________________\n",
            "Layer8 (BatchNormalization)  (None, 16, 16, 8)         32        \n",
            "_________________________________________________________________\n",
            "Layer9 (Activation)          (None, 16, 16, 8)         0         \n",
            "_________________________________________________________________\n",
            "Layer11 (MaxPooling2D)       (None, 8, 8, 8)           0         \n",
            "_________________________________________________________________\n",
            "Layer12 (Conv2D)             (None, 8, 8, 8)           584       \n",
            "_________________________________________________________________\n",
            "Layer13 (BatchNormalization) (None, 8, 8, 8)           32        \n",
            "_________________________________________________________________\n",
            "Layer14 (Activation)         (None, 8, 8, 8)           0         \n",
            "_________________________________________________________________\n",
            "Layer17 (UpSampling2D)       (None, 16, 16, 8)         0         \n",
            "_________________________________________________________________\n",
            "Layer18 (Conv2D)             (None, 16, 16, 8)         584       \n",
            "_________________________________________________________________\n",
            "Layer20 (Activation)         (None, 16, 16, 8)         0         \n",
            "_________________________________________________________________\n",
            "Layer23 (UpSampling2D)       (None, 32, 32, 8)         0         \n",
            "_________________________________________________________________\n",
            "Layer24 (Conv2D)             (None, 32, 32, 16)        1168      \n",
            "_________________________________________________________________\n",
            "Layer26 (Activation)         (None, 32, 32, 16)        0         \n",
            "_________________________________________________________________\n",
            "Layer28 (Conv2D)             (None, 32, 32, 3)         195       \n",
            "=================================================================\n",
            "Total params: 4,267\n",
            "Trainable params: 4,203\n",
            "Non-trainable params: 64\n",
            "_________________________________________________________________\n"
          ]
        }
      ]
    },
    {
      "cell_type": "markdown",
      "metadata": {
        "id": "PugpeM1MhrOp"
…
      "outputs": [
        {
          "output_type": "stream",
          "name": "stdout",
          "text": [
            "Model: \"model_29\"\n",
            "_________________________________________________________________\n",
            "Layer (type)                 Output Shape              Param #   \n",
            "=================================================================\n",
            "input_41 (InputLayer)        [(None, 32, 32, 3)]       0         \n",
            "_________________________________________________________________\n",
            "Layer1 (Conv2D)              (None, 32, 32, 32)        896       \n",
            "_________________________________________________________________\n",
            "Layer2 (Activation)          (None, 32, 32, 32)        0         \n",
            "_________________________________________________________________\n",
            "Layer3 (BatchNormalization)  (None, 32, 32, 32)        128       \n",
            "_________________________________________________________________\n",
            "Layer4 (Conv2D)              (None, 32, 32, 32)        9248      \n",
            "_________________________________________________________________\n",
            "Layer5 (BatchNormalization)  (None, 32, 32, 32)        128       \n",
            "_________________________________________________________________\n",
            "Layer7 (Dropout)             (None, 32, 32, 32)        0         \n",
            "_________________________________________________________________\n",
            "Layer8 (Conv2D)              (None, 32, 32, 64)        18496     \n",
            "_________________________________________________________________\n",
            "Layer9 (Activation)          (None, 32, 32, 64)        0         \n",
            "_________________________________________________________________\n",
            "Layer10 (BatchNormalization) (None, 32, 32, 64)        256       \n",
            "_________________________________________________________________\n",
            "Layer11 (MaxPooling2D)       (None, 16, 16, 64)        0         \n",
            "_________________________________________________________________\n",
            "Layer12 (Dropout)            (None, 16, 16, 64)        0         \n",
            "_________________________________________________________________\n",
            "Layer13 (Conv2D)             (None, 16, 16, 64)        36928     \n",
            "_________________________________________________________________\n",
            "Layer14 (Activation)         (None, 16, 16, 64)        0         \n",
            "_________________________________________________________________\n",
            "Layer15 (BatchNormalization) (None, 16, 16, 64)        256       \n",
            "_________________________________________________________________\n",
            "Layer16 (MaxPooling2D)       (None, 8, 8, 64)          0         \n",
            "_________________________________________________________________\n",
            "Layer17 (Dropout)            (None, 8, 8, 64)          0         \n",
            "_________________________________________________________________\n",
            "Layer18 (Conv2D)             (None, 8, 8, 128)         73856     \n",
            "_________________________________________________________________\n",
            "Layer19 (Activation)         (None, 8, 8, 128)         0         \n",
            "_________________________________________________________________\n",
            "Layer20 (BatchNormalization) (None, 8, 8, 128)         512       \n",
            "_________________________________________________________________\n",
            "Layer21 (UpSampling2D)       (None, 16, 16, 128)       0         \n",
            "_________________________________________________________________\n",
            "Layer22 (Dropout)            (None, 16, 16, 128)       0         \n",
            "_________________________________________________________________\n",
            "Layer23 (Conv2D)             (None, 16, 16, 128)       147584    \n",
            "_________________________________________________________________\n",
            "Layer24 (Activation)         (None, 16, 16, 128)       0         \n",
            "_________________________________________________________________\n",
            "Layer25 (BatchNormalization) (None, 16, 16, 128)       512       \n",
            "_________________________________________________________________\n",
            "Layer26 (Dropout)            (None, 16, 16, 128)       0         \n",
            "_________________________________________________________________\n",
            "Layer27 (UpSampling2D)       (None, 32, 32, 128)       0         \n",
            "_________________________________________________________________\n",
            "Layer28 (Conv2D)             (None, 32, 32, 3)         393219    \n",
            "=================================================================\n",
            "Total params: 682,019\n",
            "Trainable params: 681,123\n",
            "Non-trainable params: 896\n",
            "_________________________________________________________________\n"
          ]
        }
      ]
    },
    {
      "cell_type": "markdown",
      "metadata": {
        "id": "B0h_o6nnufjg"
…
